hand-gesture-recognition-mediapipe-main/model/keypoint_classifier/keypoint_classifier.tflite (tflite, 6772 bytes, 6 tensors)

sequential_3/dense_9/BiasAdd/ReadVariableOp f4 [20]
00000000: 0340 35bf 0ce7 3bbf 0d5a 96bf e516 99bf
00000010: 23da f5be 5808 32bf 1efc 96bf 3004 4dbf
00000020: 4e7f 1bbf a9bb 09bf f3e1 63be 496f 17bf
00000030: 219c c23e bb7a 17bf 5fbe c2be 079e 38bf
00000040: 1475 b6be 643b 27be a8b1 b7be ac94 87be
-0.708008 -0.73399425 -1.1746231 -1.1960112 -0.48017988 -0.6954398 -1.179569 -0.80084515
-0.60741127 -0.5380197 -0.22254162 -0.5915418 0.38009742 -0.59171647 -0.38035867 -0.7211613
-0.356362 -0.1633125 -0.35877728 -0.26480615

sequential_3/dense_11/BiasAdd/ReadVariableOp f4 [8]
00000000: 1ee6 c4be 1e32 8dbe 7cd8 023f 2278 9d3e
00000010: 811e 7c3e 2164 1ebb 8855 76bc d290 6d3d
-0.38456815 -0.275773 0.5111158 0.30755717 0.24621011 -0.0024168568 -0.015035041 0.05799944

sequential_3/dense_10/BiasAdd/ReadVariableOp f4 [10]
00000000: 204a e03e a468 633e c479 d73e 3a85 853f
00000010: e6c2 8cbe 239a 5b3c 4b78 b3bd 20de 5ebe
00000020: 60a8 1b3f 95af 6b3f
0.43806553 0.22207886 0.42085087 1.0431283 -0.27492446 0.013403448 -0.087631784 -0.21764421
0.60803795 0.9206479

sequential_3/dense_9/MatMul f4 [20, 42]
00000000: a083 563c 5e3c 58be 36da 073f 19ac 86be
00000010: 409a 883e 90b4 15be 1da5 763e 387a 5bbd
00000020: 1d42 d73f 363d 57bb 41a7 80bd 131b 9a3b
00000030: 5316 6cbd b6c7 673d c7eb 05be 7a64 533d
00000040: b0ed 44be ef5d 963c a511 00bd a22f 10bd
00000050: 8af1 81bd 8267 2dbc d833 26be 1b21 d4bc
00000060: afe3 7dbe a488 f33b b484 7d3c a99c 1bbd
00000070: eb85 febd 7e7a 7c3b 9cad a3be 32e4 8aba
00000080: da55 d9be 8fbc 9ebc b519 883e 522d 99bd
00000090: c6e7 363d fb5c 34bc 4214 4ebe c82a a13c
000000a0: b2dc c9be e2e8 0b3d 9a2b 023e 2691 9bbe
000000b0: 4f8c a4bd 0e07 513c 306e c23d a633 a13d
000000c0: 2973 513e c48e 903d eab7 903e 4454 293d
000000d0: 4375 f83c a993 da3c ad5d 2e3d 80a0 ab3b
000000e0: 34da eebc ca50 103e 76b7 c6bd 4470 503e
000000f0: 214b 723d b80f a2bc 513c a43d bbb7 6fbe
00000100: 8262 57bd 386a dabe 28ba 19bf dc8d babe
00000110: de69 0f3e c8b9 c1bc 1599 043e efe6 3abe
00000120: 70cc 85bb 7ece 24bf f341 ffbe fbb4 0dbf
00000130: 3dcd 0d3e d425 d63b 3ac3 a23d 7d9c 19be
00000140: ae5f 363c 05a6 e2be 7aa5 56be 0c7b 19bf
00000150: 90bf a4bc 936a 60be e37e 563e d5ff c33a
00000160: 983c f63d 2916 44be fe32 86bc a660 e3be
00000170: 6464 75bd 7bb3 f1be a254 873d e3f9 05bc
00000180: 2bc2 853d dae5 13bd 97c0 2f3e 0725 7dbd
00000190: 38ba 843e c2ec 18bd 6b07 b33d 737b f13c
000001a0: 91b5 db3d 9416 1fbd 48a5 a83e 1320 febc
000001b0: 1e4b 083f 041e d9bc 7feb c93d f102 993d
000001c0: 46e8 2c3d 90c4 f5bc ffff cc3e bdf4 4d3d
000001d0: cf16 3f3f 4b1e 513c 2c4f 62bd 7f96 0b3e
000001e0: 797d 4bbd 65f5 7f3d 3fe5 3b3e b135 973d
000001f0: db21 e83e a2a8 4b3d aa06 803e fca4 7f3e
00000200: 9607 0dbf 3a10 213e 1f4f 5dbe 5522 12be
00000210: dba4 2cbe 43aa 89be 9ee0 bfbd 6ce8 44be
00000220: eb9e e3be 28dc 80be a9d7 3cbd ef18 b2be
00000230: 9233 323e f32b 1bbe 0996 493e 6794 e4bd
00000240: b3cf 58be 3c55 a4be ba74 393b 2cb1 4bbe
00000250: 1d20 0d3e ef81 103e bcfe da3d c01a 143e
00000260: e100 70bc f660 f8be 4922 cc3a adaa 3ebe
00000270: 4ffa 843d 91fb 693e b28e e6bc 6ea4 6d3e
00000280: 94f0 303e e99d 50bf 8d92 173d a721 85be
00000290: 3a75 0abd ca25 6a3e 89ed 5cbe f5a0 7c3e
000002a0: 805e 2a3d 80fd c8bb d84d de3f 77c3 dbbd
000002b0: c971 7f3f 9fc8 0bbe 955f 533f e507 2fbe
000002c0: b24e 893e 17e0 22be 7eba 8d3e 9694 67bd
000002d0: 3c61 9c3c 0795 da3d 4aef 46be 5127 f53d
000002e0: e8e1 95be 1177 f9bc 168c 083e 0fdc 9fbd
000002f0: 1641 dbbc 5ac8 383d 6e26 67be fd58 243d
00000300: 5881 dbbe b581 4dbd b679 6d3d 7815 90bd
00000310: dd92 17bd c711 9c3d 2de2 c1be 918d ef3d
00000320: 4f61 28bf e3c2 0bbc 3f3f 163d 77e0 80bd
00000330: 9b8e e73b cfcd a93d 59af 9dbe 7640 c93d
00000340: e774 06bf 553d a93c f044 743e e026 1d3c
00000350: 917c 673e a166 4a3f 1126 153e 8688 91bc
00000360: b0cd e63d d151 f3bd 9313 843d 1e65 0b3e
00000370: d729 77be fe92 7bbd e4b6 cd3d f5df 84bd
00000380: 8a98 c83e 9a7f fc39 0d6f f43e 0429 b83d
00000390: 2cd7 a0be 53c2 cfbd 1852 ffbd e87a e2bd
000003a0: 354d 72bd 08a2 cc3c 6a29 9abe 31f9 fd3d
000003b0: dc89 3dbe ce09 78bd 0b0d c3be 335e 17bd
000003c0: 3f7d 0cbf 2f2e ac3d e726 36bf 2d52 113e
000003d0: ee64 6a3d fa5a 253c 97bd c4be 847e 8e3d
000003e0: f1ed 39bf 6f44 233e 81b3 90bf 50c1 973e
000003f0: a07a 2c3d 6431 613e 3df4 5fbc 35c6 e2be
0.013092905 -0.21116778 0.5306734 -0.26303175 0.26680183 -0.1461966 0.24086423 -0.053583354
1.6817051 -0.003284288 -0.06281901 0.0047029345 -0.057638478 0.056586944 -0.13078223 0.051609494
-0.19231296 0.018355338 -0.031266827 -0.035201676 -0.06344898 -0.01058376 -0.16230714 -0.025894692
-0.24793886 0.0074320603 0.015473533 -0.0379912 -0.124278866 0.003852516 -0.3196839 -0.0010596572
-0.42448312 -0.019377021 0.26582113 -0.07479347 0.04465463 -0.011008496 -0.20124915 0.01967372
-0.3942619 0.03415764 0.12711945 -0.30384177 -0.08034574 0.01275803 0.09493673 0.07871179
0.20454086 0.070584804 0.28265315 0.041340128 0.030329352 0.026681738 0.042569805 0.005237639
-0.029156782 0.14093319 -0.09702961 0.20355326 0.05915368 -0.019782886 0.08019317 -0.23409931
-0.05258418 -0.42659163 -0.60049677 -0.36436355 0.14005229 -0.023648158 0.12949021 -0.18252157
-0.0040832087 -0.6437758 -0.49855003 -0.5535428 0.13847823 0.006535271 0.07947393 -0.15001102
0.01113121 -0.44267288 -0.20961562 -0.5995338 -0.020110875 -0.21915655 0.20946841 0.0014953563
0.12023276 -0.19149078 -0.016381737 -0.44409674 -0.059910193 -0.47207245 0.06607939 -0.008177253
0.06531175 -0.036107875 0.17163311 -0.06180289 0.25923324 -0.037335165 0.08741649 0.02947781
0.107279904 -0.03883989 0.329386 -0.031021154 0.5323962 -0.02650357 0.098593704 0.07471264
0.0422137 -0.030000955 0.4003906 0.05028223 0.7464418 0.01276357 -0.055251285 0.13631628
-0.049680207 0.062489886 0.18349169 0.07383288 0.4533833 0.049721368 0.25005084 0.2496528
-0.550897 0.15728846 -0.21612214 -0.14270909 -0.16859762 -0.26887712 -0.09369014 -0.19229287
-0.44457182 -0.25167966 -0.046104107 -0.34784648 0.17402485 -0.15153484 0.1968614 -0.11161118
-0.21172981 -0.3209628 0.0028298334 -0.19891804 0.13781781 0.14112066 0.10693118 0.1446333
-0.014648647 -0.48511475 0.0015574183 -0.18619795 0.06493055 0.22849871 -0.028144214 0.23207256
0.17279273 -0.8149095 0.037004996 -0.26002237 -0.033803202 0.22865978 -0.21574987 0.24670775
0.04159403 -0.006133735 1.7367506 -0.10730641 0.99783 -0.1365075 0.8256772 -0.17092855
0.26817852 -0.15905796 0.27681345 -0.056538187 0.019089334 0.10672956 -0.19427219 0.1197039
-0.29273915 -0.030452283 0.13334689 -0.07805645 -0.026764434 0.045112945 -0.22573254 0.04012393
-0.4287212 -0.050172526 0.0579774 -0.07035345 -0.037005294 0.07620578 -0.3786787 0.116969235
-0.6577348 -0.008530351 0.03668141 -0.06292813 0.0070665604 0.08291208 -0.30797842 0.09826748
-0.5252213 0.020659128 0.23854423 0.009591788 0.22606112 0.7906285 0.14565302 -0.017765295
0.112697005 -0.118808396 0.06449046 0.13612792 -0.24137054 -0.06141948 0.10044649 -0.06488029
0.39178878 0.00048160256 0.47740975 0.08992198 -0.31414163 -0.10144486 -0.1246683 -0.11058599
-0.05915566 0.024979606 -0.3010972 0.12401045 -0.1850962 -0.060556225 -0.38095888 -0.03695507
-0.5487861 0.08407246 -0.7115311 0.14191504 0.05722516 0.010092491 -0.38425896 0.06957725
-0.72628695 0.15944074 -1.130478 0.29639673 0.04210913 0.21991497 -0.013669071 -0.44291845

sequential_3/dense_10/MatMul f4 [10, 20]
00000000: dd96 06be 4ba7 59bd 41c9 963f c348 cb3e
00000010: 4de6 c73d 656d e73e 3acb 583d e1c7 f13f
00000020: 57f0 7a3d 49f7 823e f41c 11bf 2462 26bf
00000030: 4583 903e 82d0 953f 0b9e 323f 709c 833f
00000040: 9b3f bdbd 476b 593e 2f27 c7bd a2f3 d5bd
00000050: b82b db3e 483f 763e 4e29 403f 69ff 463e
00000060: 6906 613f 5b75 993e c006 acbc 82da e43f
00000070: 186c f13e bf81 883d 122d 143d b950 c4bd
00000080: 614e 903f b47c 853e 1585 fb3e 26c6 e73f
00000090: 0eb9 943e 6f2e 963e 9e13 c03f 43c2 763f
000000a0: 17c6 a43f d518 663e bd92 f33e 90f3 af3e
000000b0: d72d 7b3f 6cef 6dbf 2920 1a3f d16e 19bf
000000c0: a31e 433f f9c1 863e cdab e3be 681c c2be
000000d0: 6b37 11be c67f 23bd f83f 53be d26c 973e
000000e0: 1887 cabe e7e0 1fbf 1f8c 02be 013d 07be
000000f0: e3de 8fbe f847 76bd af65 263e b6a1 723f
00000100: de4f 4f3e 6aa1 b23d c80e 16be e726 2b3e
00000110: 5d7c 47be ea33 c0bd b065 b43c 2dfe 513e
00000120: 5a50 543c e92f 823e 5c74 673f 2de4 cfbc
00000130: 91dc 653c 1f0c 89be 0279 b3be 3778 b6be
00000140: 69d0 b6be 28f7 dc3d c15d b83e affd 1a3d
00000150: 5f64 3fbe a2d2 1c3f ea3c 713f 92f6 1dbf
00000160: b681 e33e 9e0b 44be d8a1 91be 0f75 a2bc
00000170: 73a2 693e 1007 8dbe 3802 02bf 8ef3 bf3f
00000180: 66ca b53d ca45 c53e f2f2 6e3d 2f27 7abe
00000190: d2ed 8b3e 806e 3d3e 523a 9c3e fa21 253d
000001a0: aaf3 b23e 6cb1 303f 3236 33bf 1e6a 643e
000001b0: 6bf2 4abd 9a1e d03e fa52 683f 868e 903f
000001c0: e0be 55be d4e1 423f 0bed 2a3f f534 e83e
000001d0: 76e4 1a3f ed23 db3d 3c4d 323e aa16 c53d
000001e0: efc0 22bf c75a 793e 1ace aabe 01b5 9b3f
000001f0: e1ac a4bf fb7f 9dbe a229 423e 96b2 193f
00000200: c2c0 fbbe 8725 8cbe d50f 893f e6a0 cf3e
00000210: 6d9e 293f 0c46 6dbf c06d 163f 9d67 4d3d
00000220: 1b1f 9d3f f7f4 f23e deef 473f 993b 833e
00000230: 4e47 6d3c 1185 923f 8699 4b3d e958 b83e
00000240: 4075 6e3e 62e6 033e 7d45 873f 0d39 9c3f
00000250: a24c 193e a492 0540 4966 9a3e abb9 723f
00000260: 35fa fc3c bf32 b93d fbf2 633d 978d 23bc
00000270: 6603 413f c487 793e 4382 53be 4a8a 0cbf
00000280: 4a30 6abe 55df e3bd d6d4 673e 8a45 27be
00000290: ceaf 9ebc 9831 1e3f 3c7f 27bf da4d f73f
000002a0: 263f b13e b691 ac3d 4ad3 7f3e 995a fa3c
000002b0: bd97 fc3c 3310 01bf c25f 283f 9662 a7bd
000002c0: 547c 1e3e f407 133e 116d 16bf 32d4 6bbf
000002d0: 969d 20c0 8b27 2b3e 328a 36bf 8bed 3f3e
000002e0: 1eee 593e d358 06be d773 de3e 34a0 40be
000002f0: f1bc 6a3e 2260 773e b714 c73d 978f 0dbd
00000300: 7a5c 843e 5ffb 9bbe f708 2cbe cc8e 0ebf
00000310: 998b b13e b1a7 0e3f 4d7e 7c3c c965 64be
-0.13143487 -0.05313806 1.1780168 0.3970395 0.09760723 0.4520065 0.052928187 1.8889123
0.061264362 0.2557929 -0.56684804 -0.649935 0.2822515 1.1704257 0.69772404 1.0282116
-0.092406474 0.2123233 -0.097242706 -0.1044686 0.42806792 0.24047577 0.75063026 0.19433369
0.87900406 0.29972348 -0.020999312 1.7879183 0.4715278 0.06665372 0.036175795 -0.09585709
1.1273919 0.26071703 0.4912497 1.8107345 0.29047436 0.293323 1.5005987 0.9639017
1.2872952 0.2247041 0.4757289 0.3436551 0.9811682 -0.92943454 0.6020532 -0.5993472
0.7621862 0.26319864 -0.4446701 -0.37912297 -0.14181297 -0.039916776 -0.20629871 0.2957521
-0.39556193 -0.6245255 -0.12748764 -0.13206865 -0.28099737 -0.06012723 0.16249727 0.94778
0.2024531 0.087221935 -0.14654076 0.16714059 -0.19481035 -0.09384902 0.022021145 0.20507117
0.01295861 0.25427178 0.90411925 -0.025377357 0.014029638 -0.2676706 -0.3505326 -0.35638592
-0.3570588 0.10789329 0.3600903 0.037839588 -0.18690632 0.612589 0.9423357 -0.6170436
0.444349 -0.19145057 -0.2844379 -0.019831209 0.22815876 -0.2754445 -0.50784636 1.4996202
0.08876495 0.38529807 0.05833716 -0.2442901 0.2732988 0.18499184 0.30513245 0.040315606
0.34951526 0.69020724 -0.7000457 0.22306105 -0.049547594 0.40648347 0.9075161 1.1293495
-0.20873594 0.76125836 0.6676795 0.45352903 0.60504854 0.10700212 0.17412275 0.096234635
-0.63575643 0.24351035 -0.33360368 1.2164613 -1.2865258 -0.30761704 0.18961194 0.60038126
-0.491705 -0.2737238 1.0707957 0.40552443 0.66257364 -0.9268501 0.58761215 0.05014764
1.2275118 0.47452518 0.78100383 0.25631407 0.014482332 1.1446859 0.04970696 0.36005333
0.23286915 0.12880853 1.0568081 1.220491 0.1497064 2.0870752 0.30156162 0.94814557
0.030881027 0.09042882 0.055651646 -0.009982488 0.7539581 0.24368197 -0.2065516 -0.5489851
-0.22869983 -0.111265816 0.22639784 -0.16335121 -0.01937094 0.61794424 -0.6542852 1.9320633
0.3461849 0.0842623 0.24982944 0.030560778 0.030834073 -0.50415343 0.65771115 -0.08173101
0.15477115 0.14358503 -0.5876017 -0.9212066 -2.5096183 0.16714303 -0.7130462 0.18742959
0.21282241 -0.13119821 0.43447754 -0.18811113 0.22923638 0.24157766 0.09720748 -0.034560766
0.25851804 -0.30465218 -0.16800295 -0.5568664 0.34676817 0.55724627 0.015410972 -0.22304453

sequential_3/dense_11/MatMul f4 [8, 10]
00000000: 0e89 5f3e 8024 643f d80d 2cbf 69a2 38bf
00000010: bc63 dbbe 1077 0e3f 6cb9 dc3b 3af8 123f
00000020: 649b 5f3e 135c 37bf 3b26 743e 570e ad3e
00000030: 4b9b 7c3d fff3 ee3e e690 3a3f 7a93 42bd
00000040: 54d4 e93e 4fd6 b73e 8785 63be efb0 f0be
00000050: bb47 653f f61e 4c3d 91ea 6bbf 5f49 0b3f
00000060: c945 2bbf 8cae c6bf c892 5d3e b4ed 243e
00000070: 1259 503f 4093 293e d446 5cbe 018f afbf
00000080: 76e3 69bf 14a3 84bf 2949 e6be 03fc 3a3e
00000090: e2a2 1d3f b3d0 3f3f d6cb babf b8dd 0f3f
000000a0: 4937 7c3e b1a0 4c3f 8e11 36bf 35f7 64bf
000000b0: cc02 8b3f 3c61 05be 936a 18bf 2671 0ac0
000000c0: a62e 44be 0f81 89bc 5e73 e5bf 0f0b 16bf
000000d0: 6131 733f b0d6 e7bb 2dac c0be 173d 8abe
000000e0: 9834 03bf b308 ea3e 1e4b a8be bcfd 263f
000000f0: ddfa 9fbf e619 183e bc27 313f e766 c4be
00000100: 72b9 35bf 4a27 6dbf 6e4f 993f 2f93 15be
00000110: eb1d 81bf 6e16 233f b019 15bc 434a dfbf
00000120: 3bae d6bf 348e 4a3f 9e38 323d 87e9 943f
00000130: f73e 6bbe f4d7 67bf 4247 4f3f 6093 96bf
0.21829626 0.89118195 -0.67208624 -0.7212282 -0.4284953 0.55650425 0.006735971 0.57410014
0.2183662 -0.7162487 0.23842709 0.33800003 0.061671536 0.4667053 0.7287735 -0.047503926
0.45669806 0.35905692 -0.22218905 -0.4700999 0.89562577 0.049834214 -0.92154795 0.5440883
-0.6690336 -1.5522017 0.21638024 0.16106302 0.8138591 0.16560078 -0.21511394 -1.3715516
-0.913627 -1.0362267 -0.44977692 0.18260197 0.61576664 0.74927825 -1.4593456 0.5619769
0.24630465 0.79932696 -0.71120536 -0.8943971 1.0860229 -0.13025373 -0.5953762 -2.163156
-0.1915842 -0.016785173 -1.7925832 -0.58610624 0.9499722 -0.0070751533 -0.3763136 -0.26999733
-0.51252127 0.45709762 -0.3286981 0.6523092 -1.2498432 0.1485363 0.69201255 -0.38359758
-0.7098609 -0.92638075 1.1977365 -0.14606927 -1.0087255 0.637061 -0.009100363 -1.7444538
-1.6771921 0.79123235 0.043511026 1.1633767 -0.22973238 -0.90563893 0.80968106 -1.1763725
