hand-gesture-recognition-mediapipe-main/model/keypoint_classifier/keypoint_classifier.tflite (tflite, 6784 bytes, 6 tensors)

sequential_6/dense_20/BiasAdd/ReadVariableOp f4 [8]
0	0xbdc01ee7	-0.09380894
1	0xbed93b54	-0.42428076
2	0x3f6b5ebe	0.9194144
3	0x3e796f95	0.24358971
4	0xbe4da3e0	-0.20082045
5	0xbea6d818	-0.3258674
6	0xbf3978e7	-0.7245011
7	0x3f648901	0.8927155

sequential_6/dense_19/BiasAdd/ReadVariableOp f4 [10]
0	0xbe107eba	-0.14110842
1	0x3e47fe2e	0.19530556
2	0xbe57f920	-0.21091127
3	0x3edace97	0.4273574
4	0x3f3b16f8	0.7308192
5	0x3f8e44d0	1.111475
6	0x3e1eab40	0.15495014
7	0x3f579d0f	0.8422403
8	0x3f3381ad	0.70119745
9	0x3f1f9aa3	0.6234533

sequential_6/dense_18/BiasAdd/ReadVariableOp f4 [20]
0	0x3e8a6b81	0.27035144
1	0xbf167cf0	-0.5878439
2	0xbf5f86a6	-0.8731483
3	0xbf34e7e8	-0.7066636
4	0xbf03c078	-0.5146556
5	0xbeef72da	-0.46767312
6	0xbe36890a	-0.17825714
7	0xbf23c62d	-0.6397427
8	0xbeee15a7	-0.46500894
9	0xbf87c530	-1.0607052
10	0x3eb81ea9	0.35960892
11	0xbf0e58e8	-0.5560441
12	0xbf95cc20	-1.1702919
13	0xbf299ceb	-0.6625506
14	0xbf63437b	-0.8877484
15	0x3db94b67	0.09047585
16	0x3f5762ca	0.84135115
17	0xbef13b0f	-0.4711537
18	0xbf527e67	-0.82224125
19	0xbf36debf	-0.71433634

sequential_6/dense_18/MatMul f4 [20, 42]
0	0xbe5a542c	-0.21321172
1	0x3e2ac212	0.16675594
2	0x3f08df44	0.53465676
3	0xbdf540a6	-0.11975221
4	0x3f12e37b	0.5737836
5	0xbea60a4a	-0.32429725
6	0x3f044efa	0.5168301
7	0xbf06edad	-0.52706414
8	0x3f09367e	0.53598773
9	0xbf0fa3a5	-0.56109077
10	0xbe2288e2	-0.15872529
11	0xbe05eb5a	-0.13078061
12	0xbe884154	-0.2661234
13	0xbe4abcbd	-0.1979856
14	0xbe126bbe	-0.14298913
15	0x3dbb3037	0.091400556
16	0x3d142b2b	0.03617398
17	0x3ee6c9f9	0.45075968
18	0xbd6737eb	-0.056449812
19	0xbdb30291	-0.08740724
20	0xbe6c750f	-0.2309153
21	0xbeab557d	-0.3346366
22	0x3e81e60d	0.25370827
23	0xbd77124c	-0.060320184
24	0x3f330f4a	0.69945204
25	0x3d1e1670	0.038595617
26	0xbe419bce	-0.18907091
27	0xbb8ffa22	-0.004393832
28	0xbe1c8067	-0.15283357
29	0xbe3da710	-0.1852076
30	0x3cfa4551	0.03055063
31	0x3e07eec5	0.13274677
32	0x3ec8af23	0.3919612
33	0x3e0137b2	0.12618902
34	0xbe462992	-0.19351795
35	0x3d830499	0.06397361
36	0xbe8e0b14	-0.27742827
37	0x3dac07ba	0.08399911
38	0xbead1ee2	-0.33812624
39	0x3e491e71	0.19640519
40	0xbe811cdb	-0.25217327
41	0x3e8138bf	0.25238606
42	0xbe83d746	-0.25750178
43	0xbe847710	-0.25872087
44	0x3f193dc7	0.5985989
45	0x3ecee559	0.40409353
46	0x3eac60dd	0.3366765
47	0x3db7aded	0.089687206
48	0x3ec7b7ae	0.39007324
49	0x3e04d042	0.12970069
50	0x3f0c0d1c	0.54707503
51	0x3e84a44a	0.25906593
52	0xbd7b67e9	-0.061378393
53	0x3cfab4fd	0.03060388
54	0x3cb0b831	0.021572204
55	0x3d165742	0.03670431
56	0x3cabb044	0.020958073
57	0xbd837903	-0.064195655
58	0x3d120bd3	0.035655808
59	0xbe072074	-0.13195974
60	0x3d00ef11	0.03147799
61	0x3cb245fe	0.02176189
62	0xbd50c243	-0.050966512
63	0x3d840dd6	0.064479515
64	0xbded3995	-0.115832485
65	0xbc000a35	-0.007814934
66	0xbe87927a	-0.2647894
67	0xbdce79e3	-0.10081842
68	0x3df46ff2	0.119354144
69	0x3a1d8831	0.0006009369
70	0xbe19f2fe	-0.150341
71	0x3d5ebe66	0.054380797
72	0xbee25475	-0.4420506
73	0xbd63863f	-0.05554795
74	0xbf2d8176	-0.67775667
75	0xbcea2bc3	-0.02858532
76	0x3e9cbeb5	0.30614248
77	0xbe0cd7ba	-0.13754168
78	0xbd8f0ea6	-0.06985216
79	0xbb407cbd	-0.0029371225
80	0xbef7575f	-0.48308846
81	0xbd42dfa2	-0.047576554
82	0xbf5eadc9	-0.86983925
83	0xbdc2d00f	-0.0951234
84	0xbcb1b660	-0.021693408
85	0xbc840160	-0.016113937
86	0xbf1adbf9	-0.604919
87	0xbde9974f	-0.11405813
88	0xbeb45496	-0.35220784
89	0xbc3c399d	-0.011488345
90	0xbeab4be2	-0.33456331
91	0x3d00b833	0.031425666
92	0xbe864ff4	-0.26232874
93	0x3d155c39	0.036464904
94	0xbebb8545	-0.36625114
95	0xbeef793e	-0.46772188
96	0x3d228160	0.039674163
97	0xbec96012	-0.39331108
98	0x3d98efc1	0.074676044
99	0xbe86888c	-0.26276052
100	0xbdecea62	-0.115681425
101	0xbe30754e	-0.17232248
102	0xbdf2317e	-0.11825846
103	0xbf208196	-0.6269773
104	0x3d5145ee	0.05109208
105	0xbe360e87	-0.17778979
106	0x3e5ce28e	0.21570799
107	0x3e774b60	0.24149847
108	0x3e995a92	0.29951912
109	0x3ea481d9	0.32130316
110	0x3d9bc2d4	0.0760552
111	0xbf33f9f3	-0.7030327
112	0x3cef316b	0.029198369
113	0xbdf36325	-0.11884145
114	0x3ddb2580	0.10700512
115	0x3ec71c7a	0.38888913
116	0x3da6c364	0.081427366
117	0x3ea587d5	0.32330194
118	0x3e8af613	0.27140865
119	0xbf55254a	-0.83260024
120	0x3c34294c	0.010996174
121	0xbe848099	-0.25879362
122	0xbdc4cc05	-0.09609226
123	0x3e6c3b7b	0.23069565
124	0xbe5237a0	-0.20529032
125	0x3e839cdb	0.2570561
126	0xbd539ec8	-0.051665097
127	0x3b176d00	0.002310574
128	0x3df3f995	0.11912838
129	0x3ea6df95	0.32592455
130	0x3c897070	0.016777247
131	0x3b92b222	0.0044768015
132	0x3e46c777	0.19412027
133	0xbe35861f	-0.17726944
134	0x3ece6fc0	0.40319633
135	0xbe65df15	-0.2244838
136	0xbed063d2	-0.40701157
137	0xbe38d508	-0.18050015
138	0xbdfd3751	-0.123640664
139	0xbe47e7c7	-0.1952201
140	0xbcd3ffb3	-0.025878763
141	0x3bbb17a2	0.0057096044
142	0x3b888a67	0.0041668895
143	0x3dab6fc0	0.08370924
144	0xbed926da	-0.42412454
145	0xbe94f875	-0.29095808
146	0xbc8cc66b	-0.017184457
147	0xbd208a9b	-0.039194684
148	0x3d06815a	0.032838203
149	0x3e67e773	0.22646885
150	0x3bc1be2b	0.0059125624
151	0x3e8ecea8	0.2789204
152	0xbe65523d	-0.22394653
153	0xbf13c294	-0.5771878
154	0x3e06bcff	0.13158034
155	0xbe132c8b	-0.1437246
156	0x3dda9418	0.10672778
157	0x3e441bc8	0.19151223
158	0x3d33fec9	0.043944154
159	0x3e551bed	0.20811434
160	0x3b5270a4	0.0032110596
161	0xbf867361	-1.0503961
162	0x3e37af96	0.17938074
163	0xbec19fc3	-0.378172
164	0x3e49bacb	0.19700162
165	0x3dfdc9db	0.123920165
166	0x3de1f5fc	0.11033246
167	0x3e58fadf	0.2118945
168	0xbdb680f6	-0.08911316
169	0xbddab4e6	-0.10679035
170	0xbce8c69c	-0.028415017
171	0x3e84beae	0.25926727
172	0x3bef3594	0.007300088
173	0xbdd0aed2	-0.10189594
174	0xbc956602	-0.018237118
175	0xbe686259	-0.22693767
176	0xbcbba58f	-0.022906093
177	0xbf8c8380	-1.0977631
178	0xbde9720f	-0.11398708
179	0x3ccf3244	0.025292523
180	0x3c40f0ef	0.011776193
181	0xb904a22e	-0.00012648918
182	0x3d66d37b	0.056354027
183	0x3da93812	0.08262648
184	0x3d03bef4	0.03216453
185	0x3da822e3	0.08209779
186	0xbe257695	-0.16158517
187	0xbcccb98c	-0.02499082
188	0x3d2bb75e	0.04192292
189	0xbdff5e5f	-0.12469172
190	0xbc5fce1b	-0.013659979
191	0x3dc39d85	0.09551529
192	0xbe0553c7	-0.1302024
193	0x3e93c192	0.2885862
194	0xbdf1f1b9	-0.11813683
195	0xbd85be3c	-0.06530425
196	0x3d8c4e7a	0.06850906
197	0xbe16d393	-0.14729147
198	0x3c4f1f32	0.012641715
199	0x3e928f30	0.28624868
200	0xbe0b4e73	-0.13604145
201	0x3f242848	0.64123964
202	0xbd123be1	-0.035701636
203	0xbe21909d	-0.15777822
204	0x3de40a38	0.111347616
205	0xbda0f25b	-0.07858726
206	0x3ccd3ef3	0.02505443
207	0x3ea1c78c	0.31597555
208	0xbda1512c	-0.078768104
209	0x3f3fbc0f	0.7489633
210	0x3df9b970	0.121935725
211	0xbd319110	-0.043351233
212	0xbf9346c9	-1.1505977
213	0xbf8ef8a3	-1.1169628
214	0xbf1c7953	-0.61122626
215	0xbf3cea35	-0.7379487
216	0xbf15aaae	-0.5846356
217	0xbf443bb8	-0.76653624
218	0xbeffc77a	-0.49956876
219	0xbf17d9a4	-0.5931647
220	0xbf0f5b49	-0.55998665
221	0xbe771ab8	-0.24131286
222	0xbdd121f9	-0.10211558
223	0xbc09e182	-0.008415582
224	0x3dc11ea7	0.094296746
225	0x3e982879	0.29718378
226	0x3e1f4af0	0.1555593
227	0x3ec6a31a	0.38796312
228	0xbeb844ba	-0.35989934
229	0xbe0f89c7	-0.14017402
230	0x3e01afd6	0.12664732
231	0xbdfec025	-0.124389924
232	0x3dd3ad98	0.10335845
233	0xbcec7729	-0.028865414
234	0xbe5c0e1a	-0.21489754
235	0xbd3f3c27	-0.046688225
236	0xbe29c868	-0.16580355
237	0xbc705100	-0.014667749
238	0x3e0b703b	0.13617031
239	0xbddd1d71	-0.10796631
240	0x3e1aa75c	0.15102905
241	0xbd8d8977	-0.06910985
242	0xbeafb3fd	-0.34317008
243	0x3baa0dac	0.005189618
244	0x3e8bc732	0.2730041
245	0xbc3ead23	-0.011637959
246	0x3ee56626	0.44804496
247	0xbe08c088	-0.13354695
248	0x3e6063bb	0.21913044
249	0xbd49c9b4	-0.049264625
250	0xbe43f5d2	-0.19136742
251	0x3be837ce	0.0070867306
252	0x3e18e9be	0.14932916
253	0xbe5301a1	-0.2060609
254	0x3d42bdbe	0.047544234
255	0x4017242c	2.3615828

sequential_6/dense_19/MatMul f4 [10, 20]
0	0x3e8e6344	0.2781011
1	0xbd7d6165	-0.06186046
2	0xbd56bf40	-0.052428484
3	0xbecadcb0	-0.39621496
4	0x3f4ea0c6	0.8071407
5	0x3e624aae	0.220988
6	0xbd64ac6f	-0.055828508
7	0x3f193345	0.59843856
8	0x3f4ff156	0.81227624
9	0xbf0b26b7	-0.5435595
10	0x3f49eb33	0.7887451
11	0x3ecdd41a	0.40200883
12	0x3e592317	0.21204792
13	0x3ef8d368	0.4859879
14	0xbd7325f7	-0.059362378
15	0x3eef2767	0.4670975
16	0x3e3df897	0.18551861
17	0x3f1db287	0.61600536
18	0xbe6e1c63	-0.23253016
19	0xbf9cba30	-1.224432
20	0x3e04455d	0.12917085
21	0x3ee0cd3b	0.43906578
22	0x3d372c33	0.044719886
23	0xbe9eb325	-0.3099605
24	0x3f9d1e4f	1.2274874
25	0x3ef39ecc	0.4758209
26	0x3e58a32c	0.21155995
27	0x3d073fa4	0.033019677
28	0x3f2b3373	0.6687538
29	0x3f85dc7f	1.0457915
30	0xbeb856d1	-0.36003736
31	0x3e39ae30	0.18132854
32	0x3f35df41	0.71043783
33	0x3e07a0d5	0.13244946
34	0xbec740bb	-0.38916573
35	0x3ed46b13	0.4148794
36	0x3dcc3db3	0.09972706
37	0x3f32f073	0.69898146
38	0xbd22f7a4	-0.03978695
39	0x3d41190f	0.04714304
40	0xbcffb852	-0.03121582
41	0xbd8de694	-0.06928745
42	0x3eb83d26	0.35984153
43	0xbd33f8c2	-0.043938406
44	0x3e508751	0.20364119
45	0x3f18c8ff	0.59681696
46	0xbe322499	-0.17396773
47	0x3dedd27d	0.11612413
48	0xbf244ae2	-0.6417676
49	0xbdaa26e4	-0.08308199
50	0xbf00f963	-0.50380534
51	0xbe86809c	-0.26269996
52	0x3fb5b31e	1.4195287
53	0x3ceedc76	0.029157858
54	0x3f005b17	0.5013899
55	0x3e720e0c	0.23638171
56	0xbdf40d5c	-0.119166106
57	0x3edbd46f	0.4293551
58	0x3e8c4f57	0.27404281
59	0x3e888416	0.26663274
60	0x3f474f9c	0.7785585
61	0x3f777976	0.9666971
62	0x3e79b199	0.24384154
63	0x3ceccf3c	0.02890741
64	0x3ebdfb6c	0.37105882
65	0xbe50c38d	-0.20387097
66	0x3f921905	1.1413885
67	0x3ec53b36	0.38521737
68	0x3f0e3854	0.555547
69	0x3ee0b912	0.43891197
70	0x3f150f4a	0.58226454
71	0x3ea29a0a	0.31758147
72	0x3cd24c9d	0.025671298
73	0x3efbea48	0.4920218
74	0xbe8cd972	-0.27509648
75	0x3e8dd767	0.277034
76	0x3f4ed4da	0.80793536
77	0x3cf99215	0.030465165
78	0xbe8de49e	-0.27713484
79	0x3eeb6651	0.459765
80	0xbe0c460e	-0.13698599
81	0x3e0fec15	0.14054902
82	0xbe6a4607	-0.22878276
83	0xbd6e2821	-0.05814374
84	0xbf7f525a	-0.99735034
85	0xbeb94a24	-0.36189377
86	0x3fa13c80	1.2596588
87	0xbe374cf8	-0.17900455
88	0xbf5b8ed6	-0.85764825
89	0x3d5efaf3	0.054438543
90	0xbea8e057	-0.32983658
91	0xbca484e5	-0.0200829
92	0xbd552f40	-0.052047014
93	0xbef7f804	-0.48431408
94	0xbdea24ea	-0.11432822
95	0xbf003763	-0.50084513
96	0xbe3f3253	-0.18671541
97	0x3e7a1408	0.24421704
98	0x3f7c12b5	0.98466045
99	0xbdc1df4f	-0.09466421
100	0x3e8561bf	0.26051137
101	0xbf3b4e22	-0.73166096
102	0x3d88c7bf	0.066787235
103	0xbe869458	-0.26285052
104	0x3d94afe0	0.07260108
105	0x3e4f7e6b	0.20263068
106	0x3f400f09	0.7502294
107	0xbfb9c441	-1.4513017
108	0x3dc7f4e3	0.09763505
109	0xbdb125a6	-0.08649759
110	0x3e0ffc02	0.14060977
111	0xbfe926a2	-1.8214915
112	0xbe7a95a4	-0.24471146
113	0xbe05c603	-0.13063817
114	0xbf45563b	-0.770847
115	0x3e37899f	0.17923592
116	0x3e9cf178	0.30652976
117	0xbf53a198	-0.8266845
118	0x3ebfb207	0.37440512
119	0xbecc7d14	-0.39939177
120	0x3f143088	0.5788655
121	0x3d22d391	0.039752547
122	0x3ee78c92	0.45224434
123	0x3f50d020	0.81567574
124	0x3f1b88e5	0.6075576
125	0x3ee7669b	0.4519547
126	0x3e7c980a	0.24667373
127	0x3e7237cf	0.23654102
128	0x3e1ff66d	0.15621348
129	0x3edbe2b1	0.4294639
130	0x3efc7921	0.49311164
131	0xbe08e924	-0.13370186
132	0x3e0266b1	0.12734486
133	0x3f905d5f	1.1278495
134	0x3f47d439	0.780582
135	0x3eb98770	0.36236143
136	0x3f19045d	0.5977228
137	0xbf05fca0	-0.523386
138	0x3f28ff47	0.6601452
139	0xbca876a8	-0.020564392
140	0xbe8df20c	-0.2772373
141	0xbf2401e9	-0.64065415
142	0x3f59a3fe	0.8501586
143	0x3ee59531	0.44840387
144	0xbe3dc698	-0.18532789
145	0x3ed3c466	0.41360778
146	0x3db6e43f	0.08930253
147	0x3f559a13	0.83438224
148	0x3e1dd451	0.15413024
149	0x3dacd7eb	0.084396206
150	0xbd8fb79e	-0.07017444
151	0x3f5fbc4b	0.8739669
152	0x3e66d49b	0.2254204
153	0xbf93737d	-1.1519619
154	0x3f6e6ab7	0.93131584
155	0x3e0dcb56	0.13847098
156	0xbda638f9	-0.081163354
157	0x3f22754d	0.63460237
158	0xbfdbedcc	-1.7181945
159	0x3f42fabb	0.76163834
160	0x3e43441d	0.19068952
161	0xbf938ca3	-1.1527294
162	0x3f35fe21	0.71090895
163	0x3f6901ea	0.91018546
164	0xbf41f98d	-0.7577141
165	0x3ee85546	0.45377558
166	0x3ea24fdc	0.31701553
167	0xbeb62a84	-0.35579312
168	0x3ec39319	0.38198164
169	0x3eb78499	0.3584335
170	0x3d9a8c6e	0.07546316
171	0xbf9e024d	-1.2344452
172	0xbe01deb6	-0.12682614
173	0x3e78c52f	0.2429397
174	0x3eae6d15	0.34067598
175	0x3f8297e3	1.0202602
176	0x3e19d3d3	0.15022211
177	0x3f03a454	0.5142262
178	0xbe801b83	-0.2502099
179	0x3e40ae3d	0.18816467
180	0x3e10f537	0.14156042
181	0x3eb050f0	0.3443675
182	0x3ec9205c	0.392825
183	0x3f16deba	0.58933604
184	0xbe388361	-0.18018867
185	0xbff9910d	-1.9497391
186	0xbfbe78cc	-1.4880614
187	0x3e7f0aa1	0.24906398
188	0x3cd8486f	0.026401727
189	0xbd9a9c2d	-0.075493194
190	0xbf1f0934	-0.6212342
191	0x3ed2450a	0.41068298
192	0x3ea26ea6	0.31725043
193	0x3e3e8c6f	0.18608259
194	0x3f21d64b	0.6321761
195	0x3e731f4e	0.2374241
196	0x3c136e7f	0.008998512
197	0x3ed07171	0.4071155
198	0x3e43ff71	0.19140412
199	0x3e72062d	0.23635168

sequential_6/dense_20/MatMul f4 [8, 10]
0	0x3f2fba8a	0.6864401
1	0x3f1ef573	0.62093276
2	0xbd0932a5	-0.033495564
3	0x3f6911fa	0.91043055
4	0xbecc9188	-0.39954782
5	0xbefa9a2b	-0.48945746
6	0xbf0a61b5	-0.5405534
7	0x3d987dc6	0.074458644
8	0xbef96444	-0.4870931
9	0xbf12044c	-0.57037807
10	0xbde3166f	-0.11088263
11	0xbde57b5f	-0.11205172
12	0x3f1a6695	0.6031278
13	0x3e424d13	0.18974714
14	0x3ecc3dc0	0.39890862
15	0xbeb40235	-0.35157934
16	0x3f334450	0.7002611
17	0xbe77e3c1	-0.24207975
18	0xbe3e7316	-0.1859859
19	0xbd1bb2f6	-0.038012467
20	0xbf3464c5	-0.7046626
21	0xbf947036	-1.1596744
22	0xbf0818aa	-0.53162634
23	0x3e61ea70	0.22062087
24	0xbf830b2a	-1.0237782
25	0x3f9c633c	1.2217784
26	0xbe3a9def	-0.1822431
27	0x3dbd4482	0.092415825
28	0x3f10aa6a	0.5651003
29	0xbf6d2889	-0.92639977
30	0x3ef9c1aa	0.48780566
31	0xbe87314c	-0.26404798
32	0x3f1b3ced	0.6063984
33	0xbf43f5f5	-0.76547176
34	0xbfa44ad0	-1.2835331
35	0xbf614d58	-0.8800864
36	0xbf08304f	-0.53198713
37	0x3f679d74	0.9047463
38	0xbf8b0699	-1.0861388
39	0xbebf32b1	-0.37343362
40	0x3f040746	0.515736
41	0x3f304788	0.6885915
42	0xbe9a3ac5	-0.30122963
43	0xbe1cf899	-0.15329207
44	0xbf9e382b	-1.2360891
45	0x3f75a133	0.95949095
46	0x3e0f5236	0.13996205
47	0xbfc09e78	-1.5048361
48	0xbe754b81	-0.23954584
49	0xbf4b331d	-0.7937487
50	0x3ce4a5bb	0.027911058
51	0xbfb2629a	-1.3936341
52	0xbe847f7e	-0.2587852
53	0x3ef3e413	0.47634944
54	0xbf511e3e	-0.8168677
55	0xbec12364	-0.37722313
56	0x3eee5fd6	0.46557492
57	0xbee461d0	-0.44605875
58	0xbf84bfdc	-1.0371051
59	0x3f6a558b	0.9153678
60	0xbe4ac75d	-0.19802614
61	0xbe84edba	-0.2596262
62	0x3f1c1f82	0.6098558
63	0xbf82dafd	-1.022308
64	0xbf864113	-1.0488609
65	0xbe805350	-0.25063562
66	0xbf31480e	-0.6925057
67	0x3e468714	0.19387466
68	0x3f145354	0.5793965
69	0x3db1625c	0.08661339
70	0xbfe11649	-1.7584926
71	0x3e185792	0.14877155
72	0xbb8fbb18	-0.004386317
73	0x3b539d76	0.00322899
74	0x3fa59906	1.2937324
75	0x3e316811	0.17324854
76	0xc001631b	-2.021674
77	0xbf3cec24	-0.7379782
78	0xbfc0dba1	-1.5067025
79	0x3f2d354a	0.6765944
