hand-gesture-recognition-mediapipe-main/hand-gesture-recognition-mediapipe-main/model/keypoint_classifier/keypoint_classifier.tflite (tflite, 6640 bytes, 6 tensors)

sequential_3/dense_9/BiasAdd/ReadVariableOp f4 [20]
0.3891611 -0.63569343 -0.1913951 -0.435648 -0.23808019 -0.8696651 -0.42441574 -0.7548534
-0.5910179 -0.41499645 -0.53139436 -0.22431627 -0.40027988 -0.48381343 -0.2665866 -0.39197254
-0.51448816 -0.6026689 0.3482059 -0.44716778
00000000: 2040 c73e cebc 22bf 14fd 43be 410d dfbe
00000010: 4bcb 73be 5fa2 5ebf 054d d9be 133e 41bf
00000020: f34c 17bf 6a7a d4be 7609 08bf 2ab3 65be
00000030: 7cf1 ccbe 65b6 f7be 0a7e 88be a0b0 c8be
00000040: 7fb5 03bf 8248 1abf 0b48 b23e 2df3 e4be

sequential_3/dense_11/BiasAdd/ReadVariableOp f4 [5]
-0.066409275 -0.24597561 0.4337354 -0.006651402 -0.06618146
00000000: 9601 88bd 08e1 7bbe 9112 de3e 01f4 d9bb
00000010: 258a 87bd

sequential_3/dense_10/BiasAdd/ReadVariableOp f4 [10]
1.0455652 0.50126076 0.119274534 0.4027397 0.026191346 0.1856469 -0.059543103 0.26021338
-0.21134825 0.19482192
00000000: 15d5 853f a052 003f 3546 f43d e633 ce3e
00000010: 3c8f d63c 391a 3e3e 78e3 73bd b03a 853e
00000020: ad6b 58be 667f 473e

sequential_3/dense_9/MatMul f4 [20, 42]
-0.29064572 0.26454908 0.37208903 1.0094782 0.14741842 0.5912787 0.31422117 0.618305
0.121595204 0.5105939 -0.20922706 0.28980446 0.12349478 0.08089947 0.0064887083 -0.093515284
0.18686472 0.47607678 0.069108136 -0.03304854 -0.16096823 0.08322522 -0.047559135 0.05475114
0.06937729 0.023735905 -0.0154110035 -0.19819821 0.14647034 0.0069831894 0.005391966 -0.06934615
0.14362548 0.01899463 0.38703007 -0.108481236 0.49209613 -0.14689556 0.4051853 -0.042500507
0.16130896 -0.06196785 0.01581052 0.23058236 0.8009882 -0.17744349 0.55312383 -0.14977285
0.57688093 -0.33061346 0.3630847 0.014432853 0.33112448 -0.15811074 0.009985853 -0.0026319635
-0.17680416 0.04533574 -0.413404 0.078480914 0.18443859 0.010272401 0.244599 -0.007551274
0.07148079 -0.15656994 0.07392436 -0.049309466 0.24844807 -0.13605422 0.06828097 -0.123556286
-0.034348242 -0.094411775 -0.17055887 -0.047100734 0.2660074 0.042329565 0.11596459 -0.12960175
0.07422376 -0.02100326 -0.15101522 -0.07618478 -0.17229491 -0.05963561 -0.16004299 -0.055991236
-0.1601601 -0.41175303 -0.4929885 -0.60802764 -0.6732143 -0.5439779 -0.0979969 0.20481229
-0.020423016 0.1102167 0.015138176 0.07126471 0.02063021 0.04400008 -0.22790445 0.18142098
0.043266248 0.010486823 0.24295738 0.004369711 0.42794144 0.056987543 -0.32579085 0.20137443
0.14445706 -0.011524269 0.42267746 0.010997034 0.5573374 0.44532916 -0.22180028 0.26414138
0.034885038 0.044310912 0.30297154 0.16961114 0.45216504 0.21695323 -0.17387375 -0.2548846
0.2296565 0.34639326 0.08764458 0.19795059 0.1674808 0.22656333 0.22431475 0.2651074
0.016355673 -0.017243333 -0.022290638 0.10109122 -0.10370057 -0.058868013 -0.06987742 -0.080626085
0.13510899 0.033637963 0.0444816 0.05103313 -0.082977764 -0.18764026 -0.20200595 -0.35838866
0.25827035 0.060382366 0.099298604 0.03682956 -0.26675096 -0.311145 -0.41481403 -0.3550019
0.51552224 0.09541659 0.06993854 0.11958947 -0.24341385 -0.14065336 -0.6212479 -0.4241586
-0.29024446 -0.03325355 0.15204729 0.3369256 -0.1332563 0.117743835 -0.33200637 0.22566575
-0.4113825 0.26175785 0.0844209 0.1837297 0.037853602 0.07386944 0.01645028 0.02180411
0.0127855055 -0.0023739873 0.09113411 0.097005725 0.065101124 0.18431075 0.10434444 -0.10709193
0.18359593 -0.39093587 0.046132453 0.08849522 -0.068545476 0.12591136 0.22076154 -0.3361418
0.28965452 -0.7543818 -0.0070679486 0.12840745 -0.15221547 0.07965578 0.10604466 -0.25233534
0.120305106 -0.5174711 0.13658321 -0.31046578 -0.26189122 -0.5868617 -0.18236867 -0.28169987
-0.16968687 -0.5118649 -0.123073734 -0.19642854 -0.24726716 -0.1865709 -0.05215933 -0.068078
0.07104406 0.10149702 0.12019495 0.08178346 -0.30081657 -0.12190045 -0.07268022 -0.0714469
0.0030783892 0.012635323 0.031499993 0.026365366 -0.10462744 -0.054056067 0.0038946318 -0.062485483
0.032960396 0.021520836 0.05676158 0.04794786 0.072353475 0.0010856012 0.0017096964 -0.09665266
0.005846503 -0.006378244 -0.019834217 0.06820497 -0.1539175 -0.26264098 0.012711067 0.1667915
00000000: 84cf 94be fa72 873e 7482 be3e 9536 813f
00000010: dbf4 163e 0a5e 173f 99e1 a03e 3d49 1e3f
00000020: e806 f93d 48b6 023f 9e3f 56be 4061 943e
00000030: d5ea fc3d 9fae a53d 3b9f d43b f184 bfbd
00000040: 7759 3f3e 56c0 f33e 9188 8d3d e85d 07bd
00000050: dbd4 24be fc71 aa3d 5ecd 42bd bb42 603d
00000060: ae15 8e3d cd71 c23c 6f7e 7cbc 79f4 4abe
00000070: 52fc 153e 3dd3 e43b 17af b03b 5b05 8ebd
00000080: 8f12 133e a09a 9b3c ce28 c63e 692b debd
00000090: 06f4 fb3e ca6b 16be 7374 cf3e 0315 2ebd
000000a0: 2d2e 253e 00d2 7dbd 1085 813c c81d 6c3e
000000b0: 900d 4d3f bfb3 35be 8699 0d3f 0e5e 19be
000000c0: 78ae 133f 2b46 a9be 3de6 b93e c677 6c3c
000000d0: 2689 a93e c8e7 21be b49b 233c 057d 2cbb
000000e0: 260c 35be f8b1 393d b0a9 d3be 9aba a03d
000000f0: 78dd 3c3e 934d 283c 2978 7a3e ad70 f7bb
00000100: 8564 923d df53 20be a865 973d b9f8 49bd
00000110: 2c69 7e3e cc51 0bbe e5d6 8b3d 140b fdbd
00000120: beb0 0cbd f65a c1bd fca6 2ebe b3ec 40bd
00000130: 1f32 883e c461 2d3d d87e ed3d 52b6 04be
00000140: a002 983d 070f acbc bca3 1abe c406 9cbd
00000150: 146e 30be 7844 74bd 4fe2 23be 1157 65bd
00000160: 0201 24be 4bd1 d2be fd68 fcbe b3a7 1bbf
00000170: c657 2cbf 2342 0bbf 99b2 c8bd 50ba 513e
00000180: 2b4e a7bc 4bb9 e13d 1d06 783c 3bf3 913d
00000190: b000 a93c 6e39 343d c95f 69be 6cc6 393e
000001a0: f337 313d ecd0 2b3c d2c9 783e cb2f 8f3b
000001b0: 241b db3e c56b 693d 0fce a6be 1935 4e3e
000001c0: 8dec 133e 4ad0 3cbc 2e69 d83e e72c 343c
000001d0: aaad 0e3f 2f02 e43e 9d1f 63be 8a3d 873e
000001e0: 9de3 0e3d 5c7f 353d 161f 9b3e 8bae 2d3e
000001f0: 2d82 e73e fd28 5e3e f60b 32be 3c80 82be
00000200: 132b 6b3e 755a b13e 007f b33d 8fb3 4a3e
00000210: 1680 2b3e 3800 683e c4b2 653e 28bc 873e
00000220: 55fc 853c e441 8dbc db9a b6bc ea08 cf3d
00000230: f760 d4bd 961f 71bd e51b 8fbd 4a1f a5bd
00000240: 035a 0a3e f6c7 093d 5732 363d 1e08 513d
00000250: 3ff0 a9bd c524 40be a6da 4ebe b87e b7be
00000260: 033c 843e 8053 773d 115d cb3d 98da 163d
00000270: 9593 88be 664e 9fbe 8162 d4be cfc2 b5be
00000280: 44f9 033f c669 c33d f03b 8f3d 53eb f43d
00000290: 7b41 79be 6f07 10be 1a0a 1fbf 512b d9be
000002a0: ec9a 94be e034 08bd 49b2 1b3e 8381 ac3e
000002b0: 5774 08be ae23 f13d bdfc a9be ec14 673e
000002c0: baa0 d2be 2005 863e dde4 ac3d a323 3c3e
000002d0: 610c 1b3d dc48 973d bdc2 863c 889e b23c
000002e0: 4c7a 513c e694 1bbb 85a4 ba3d f0aa c63d
000002f0: bd53 853d f5bb 3c3e 8ab2 d53d 0453 dbbd
00000300: 9200 3c3e bf28 c8be 62f5 3c3d fb3c b53d
00000310: 9261 8cbd e8ee 003e 500f 623e c71a acbe
00000320: 994d 943e 2a1f 41bf 409a e7bb 3e7d 033e
00000330: 5fde 1bbe 9222 a33d f12d d93d 1932 81be
00000340: 8662 f63d fc78 04bf 78dc 0b3e 5ff5 9ebe
00000350: 9b16 86be 923c 16bf dabe 3abe f73a 90be
00000360: 65c2 2dbe 9409 03bf 150e fcbd 9024 49be
00000370: 9a33 7dbe 710c 3fbe 06a5 55bd 7a6c 8bbd
00000380: 8c7f 913d abdd cf3d c528 f63d 167e a73d
00000390: a104 9abe f1a6 f9bd 5ed9 94bd c152 92bd
000003a0: cdbe 493b 6304 4f3c 2306 013d 2efc d73c
000003b0: e946 d6bd e569 5dbd 143d 7f3b c7f0 7fbd
000003c0: 7b01 073d 774c b03c d57e 683d fa64 443d
000003d0: 0f2e 943d bb4a 8e3a e417 e03a d4f1 c5bd
000003e0: 0694 bf3b 9700 d1bb 5e7b a2bc 0caf 8b3d
000003f0: 8d9c 1dbe e178 86be 1442 503c 64cb 2a3e

sequential_3/dense_10/MatMul f4 [10, 20]
0.15783583 0.26864493 -0.13943711 -0.5350471 -0.31908932 0.38560238 -0.6691603 0.1049931
0.7246321 -0.5287348 -0.12338224 0.5863891 -0.24389774 0.20748322 -0.40425056 -0.035400946
-0.16404377 0.45196575 0.5753368 -0.6350678 0.38164806 0.2853355 0.10140321 0.13429096
0.4244647 -0.2520455 -0.37957853 -0.0497966 -0.2666412 -0.32056388 -0.21307306 0.32461557
-0.04327887 0.40951824 -0.6454324 0.80213165 0.45784494 -0.14132476 0.15173198 -0.06785303
-0.4900006 0.7855007 0.43333173 -0.13305719 -0.039765358 0.7021635 0.753947 0.3877713
0.098746926 0.12890239 -0.14240755 0.249156 0.59549624 -0.011708508 -0.08464902 -0.11632763
0.016560612 0.5283151 0.7085008 0.37210777 -0.02265792 0.19531192 -0.25820622 -0.010955638
-0.08135577 -0.36091408 0.055645164 -0.11898836 -0.18186703 0.35715392 0.50592875 0.072282456
0.41488203 0.11261368 0.06504483 1.5462326 -0.049662307 -0.48513547 0.5825304 0.4306553
0.5308664 0.60430044 0.7516794 -0.17715612 0.08320329 1.0276008 0.14794628 0.8889538
0.48644373 0.7264422 0.76267815 0.15137702 0.6191236 0.036874775 0.48211202 -0.3957328
-0.025798889 0.28836197 0.18913995 0.122309 0.5681023 0.6260858 -0.21911524 -0.07977776
0.054646593 0.56545866 -0.29111564 0.80598634 0.9436635 0.18819587 0.08443225 0.69114524
0.2655995 0.009384537 0.3172292 0.86571157 0.0046280893 -0.26647723 0.52527094 -0.18877126
0.049829084 0.43629518 -0.10986378 1.0064164 1.1473353 -0.09113846 -0.3647457 0.3465336
-0.12808427 -0.3036974 0.46170026 0.016141912 0.6524316 0.61494905 0.12115279 0.021062614
0.71445495 -0.052406967 -0.13295576 0.23401013 -0.065452114 -0.08094896 -0.7049652 0.6516037
0.54892707 0.20004722 0.66682655 0.016982816 -0.09302055 0.5851277 0.39754018 0.024648312
0.2959831 0.3706404 0.49258637 -0.3502421 -1.4953744 0.7531972 0.018427359 0.4545614
0.1619153 -0.46014258 0.81687033 0.084170535 -0.052861188 -0.39951748 0.6372136 -0.39437374
-0.24430728 0.48480123 -0.30234674 0.53336614 0.22646594 -0.22790672 0.7092321 -0.13673747
-0.32348877 -0.43149084 0.468071 0.47842395 -0.8991321 -0.25388938 0.06756161 -0.18612128
0.13022165 0.44204894 -0.48918104 -0.15722165 0.1241185 -0.30513012 -0.44888517 0.47258282
-0.37790012 0.27139094 -0.026828147 -0.88492507 0.46319652 0.5495496 0.31949237 -0.14391923
00000000: b79f 213e d48b 893e 9ac8 0ebe d9f8 08bf
00000010: ad5f a3be ad6d c53e 174e 2bbf 9f06 d73d
00000020: 7d81 393f 2a5b 07bf d4af fcbd 991d 163f
00000030: 54c0 79be 7b76 543e eef9 cebe 9500 11bd
00000040: 17fb 27be 0e68 e73e 4649 133f ce93 22bf
00000050: 6067 c33e 7f17 923e 7cac cf3d 9283 093e
00000060: 7053 d93e 1c0c 81be 1e58 c2be 85f7 4bbd
00000070: 3285 88be f320 a4be d32f 5abe 0334 a63e
00000080: 2f45 31bd 60ac d13e 0f3b 25bf 8058 4d3f
00000090: a76a ea3e 70b7 10be a15f 1b3e 88f6 8abd
000000a0: 5ce1 fabe 9316 493f a8dd dd3e 2540 08be
000000b0: 00e1 22bd fdc0 333f ac02 413f f689 c63e
000000c0: d43b ca3d fdfe 033e 49d3 11be c022 7f3e
000000d0: 7172 183f 0bd5 3fbc 775c adbd 2e3d eebd
000000e0: 1faa 873c a93f 073f 4f60 353f e984 be3e
000000f0: 1a9d b9bc d9ff 473e 9b33 84be 477f 33bc
00000100: db9d a6bd bbc9 b8be 2fec 633d 2bb0 f3bd
00000110: 5a3b 3abe e1dc b63e 8c84 013f d308 943d
00000120: 6b6b d43e 00a2 e63d 3936 853d f3ea c53f
00000130: b46a 4bbd ad63 f8be b620 153f da7e dc3e
00000140: dce6 073f 6fb3 1a3f 106e 403f 6a68 35be
00000150: 7d66 aa3d 6c88 833f 3b7f 173e 7a92 633f
00000160: 270f f93e 1ef8 393f e03e 433f 9402 1b3e
00000170: e27e 1e3f 010a 173d 63d7 f63e 7d9d cabe
00000180: 3158 d3bc 2ea4 933e e7ad 413e 247d fa3d
00000190: 276f 113f 2947 203f bf5f 60be 8662 a3bd
000001a0: 1bd5 5f3d e6c1 103f 1c0d 95be 1f55 4e3f
000001b0: ee93 713f 6bb6 403e d1ea ac3d e5ee 303f
000001c0: a8fc 873e 9ac1 193c de6b a23e 469f 5d3f
000001d0: 3aa7 973b b46f 88be 2878 063f 414d 41be
000001e0: 9519 4c3d 1562 df3e 4300 e1bd 41d2 803f
000001f0: e2db 923f cda6 babd f3bf babe da6c b13e
00000200: 8628 03be 3a7e 9bbe fa63 ec3e 0b3c 843c
00000210: c205 273f 4d6d 1d3f f41e f83d 818b ac3c
00000220: 85e6 363f b0a8 56bd 8e25 08be 5aa0 6f3e
00000230: c20b 86bd 91c8 a5bd 9978 34bf 80cf 263f
00000240: 7c86 0c3f 2ed9 4c3e 25b5 2a3f 8c1f 8b3c
00000250: 8f81 bebd eeca 153f 638a cb3e 42eb c93c
00000260: 198b 973e 94c4 bd3e 4834 fc3e ef52 b3be
00000270: 6e68 bfbf 88d1 403f f9f4 963c 46bc e83e
00000280: 20cd 253e cf97 ebbe 6a1e 513f 9a61 ac3d
00000290: f984 58bd 8e8d ccbe 6e20 233f 5beb c9be
000002a0: b02b 7abe de37 f83e 31cd 9abe af8a 083f
000002b0: b0e6 673e 6160 69be 3c90 353f e804 0cbe
000002c0: 52a0 a5be 5eec dcbe 01a7 ef3e fcf3 f43e
000002d0: 852d 66bf cafd 81be be5d 8a3d 9496 3ebe
000002e0: d358 053e 3d54 e23e f075 fabe b6fe 20be
000002f0: d731 fe3d 043a 9cbe 47d4 e5be 60f6 f13e
00000300: 207c c1be c1f3 8a3e b4c6 dbbc 738a 62bf
00000310: 1828 ed3e 48af 0c3f 8194 a33e 905f 13be

sequential_3/dense_11/MatMul f4 [5, 10]
-1.309557 0.44457284 -0.091773085 0.961827 0.14591843 -0.32635635 0.49124658 0.1774504
1.1708376 -0.46340278 0.002110978 -0.27721474 0.021417305 -0.08648484 0.64601105 0.07249979
0.21441288 -0.23569426 -0.5321477 0.55050325 1.0528761 0.65769917 -0.7197031 0.6258949
-0.6588927 -0.34580022 -0.93575805 -1.333081 -0.17542605 -0.27806818 -1.2421917 0.211389
-0.9564598 -0.982555 -1.6639764 -1.5410488 0.20771593 0.9765003 -0.7050646 1.1356007
-0.49806327 -0.8940573 0.69666606 0.10208608 0.90046674 -0.24423704 -1.6897812 0.38005406
0.031328738 -1.339193
00000000: 909f a7bf 0d9f e33e 87f3 bbbd 4b3a 763f
00000010: a46b 153e 2e18 a7be ac84 fb3e 8fb5 353e
00000020: 02de 953f 2143 edbe 5558 0a3b 17ef 8dbe
00000030: 5873 af3c f71e b1bd fb60 253f c57a 943d
00000040: 0d8f 5b3e d659 71be d53a 08bf c8ed 0c3f
00000050: a5c4 863f f95e 283f 763e 38bf a63a 203f
00000060: 31ad 28bf ba0c b1be d78d 6fbf 66a2 aabf
00000070: e3a2 33be f45e 8ebe 2300 9fbf 5c76 583e
00000080: 8dda 74bf b988 7bbf 2efd d4bf 1641 c5bf
00000090: 7cb3 543e ecfb 793f 1d7f 34bf 5d5b 913f
000000a0: 2602 ffbe f0e0 64bf b558 323f 8212 d13d
000000b0: fd84 663f 4619 7abe c04a d8bf 7296 c23e
000000c0: 9052 003d ad6a abbf
